models/production_big_linear_ae_200_03_01.pth (torch, 32315 bytes, 12 tensors)

linear1.weight f4 [36, 72]
0	0xc023a5c2	-2.556992
1	0xbe8684cf	-0.262732
2	0xbf5af222	-0.85525715
3	0xbf46feb6	-0.7773241
4	0xbd8d7b0b	-0.06908234
5	0x3f0d03bc	0.55083823
6	0x3f7217e4	0.94567704
7	0x3ef4dc26	0.4782421
8	0xbeeeb151	-0.46619657
9	0xbfcc43c0	-1.5958176
10	0xbfedc7a1	-1.8576547
11	0xbfd09707	-1.629609
12	0xbeb844fa	-0.35990125
13	0x3f1d4db9	0.6144672
14	0x3f47c08e	0.7802819
15	0x3f63049c	0.8867891
16	0x3f2e4918	0.6808028
17	0x3f0ee401	0.55816656
18	0x3e7b6543	0.24550347
19	0xbd87ef55	-0.06637446
20	0xbec8f845	-0.39251915
21	0xbf8544da	-1.0411637
22	0xbfedd8eb	-1.8581823
23	0xc018bab4	-2.3863955
24	0xbd9272a4	-0.07150772
25	0x3ee53cdb	0.44772992
26	0xbf283fbf	-0.6572227
27	0xbf01d808	-0.5072026
28	0xbd42bfde	-0.04754626
29	0x3f49ce21	0.7883015
30	0x3f6caf65	0.9245513
31	0x3ed4d140	0.41565895
32	0xbf1be7b4	-0.60900426
33	0xbfc792d7	-1.5591687
34	0xbf9aa008	-1.2080088
35	0xbf688994	-0.9083493
36	0x3d1f53db	0.03889833
37	0x3ecfacdb	0.40561566
38	0x3eb7309b	0.3577927
39	0x3f0cd31e	0.5500964
40	0x3f05b57e	0.5223006
41	0x3eb45ca9	0.35226944
42	0xbd25b53b	-0.040456038
43	0xbedd79a4	-0.43256867
44	0xbef514d1	-0.47867444
45	0xbf52e26b	-0.82376736
46	0xbf9928b3	-1.1965545
47	0xbf2437d5	-0.6414769
48	0x3ee10fc9	0.43957356
49	0x3e47a234	0.1949547
50	0xbefe4b6f	-0.49666926
51	0xbf187ba1	-0.5956364
52	0x3dc0a2f1	0.094060786
53	0x3f11a3be	0.56890476
54	0x3f2fe869	0.68714005
55	0x3f35b6b1	0.7098189
56	0xbdcbb51f	-0.099466555
57	0xbf2e440b	-0.68072575
58	0xbf15c3d4	-0.58501935
59	0xbf475019	-0.77856594
60	0xbd5efada	-0.05443845
61	0x3bb08ef5	0.0053881356
62	0x3ddc4b5b	0.107565604
63	0x3eafb526	0.34317893
64	0x3edbf067	0.4295685
65	0x3e72c475	0.23707755
66	0x3da7f667	0.082012944
67	0xbe90f203	-0.2830964
68	0xbf0ffc76	-0.562446
69	0xbf37e1aa	-0.7182871
70	0xbf4e0dd3	-0.80489844
71	0x3e96c87d	0.29449835
72	0x3e9c871f	0.3057184
73	0x3d1cf312	0.038317747
74	0xbd996bfb	-0.07491299
75	0xbe92e4b9	-0.28690127
76	0xbe75db04	-0.24009329
77	0xbe0505a7	-0.12990437
78	0xbdb82115	-0.08990685
79	0x3dc45ded	0.095882274
80	0x3e918d7d	0.2842826
81	0xbcee815c	-0.029114418
82	0xbe49eee8	-0.19720042
83	0xbea9a26d	-0.33131734
84	0xbe68c69f	-0.22732018
85	0x3be2d80b	0.006922727
86	0xbe42b351	-0.19013716
87	0xbe3daab1	-0.18522145
88	0xbe8a8a55	-0.27058664
89	0xbe5d65f8	-0.21620929
90	0xbdd37f48	-0.10327011
91	0x3a8863f1	0.0010405761
92	0x3d5106c0	0.051031828
93	0xbd503714	-0.050833777
94	0xbe0a5044	-0.13507181
95	0xbe1e5ee9	-0.15465893
96	0xbe4cb3da	-0.19990483
97	0xbe53be22	-0.20677999
98	0xbe841ac3	-0.25801668
99	0xbe8566f3	-0.26055107
100	0xbe4e3658	-0.20137918
101	0xbdef76d7	-0.11692589
102	0xbcdb36fe	-0.02675962
103	0x3ccf0120	0.025269091
104	0x3d86a26a	0.06573947
105	0x3e1b6055	0.15173467
106	0x3d4df6c7	0.050284173
107	0xbe25a412	-0.16175869
108	0xbe8da25a	-0.27662927
109	0xbc095683	-0.008382442
110	0xbb68442e	-0.003544103
111	0x3cd957b3	0.026531076
112	0xbd8fcb7c	-0.070212334
113	0xbcbdce09	-0.023169534
114	0x3e80fec6	0.25194377
115	0x3ee6ab94	0.4505278
116	0x3f1bbb59	0.60832745
117	0x3f141854	0.5784962
118	0x3f0b3d99	0.54390866
119	0x3eed3eed	0.4633707
120	0x3ec5d12a	0.38636142
121	0x3e6c9385	0.23103149
122	0x3daba823	0.08381679
123	0xbd59ddbe	-0.053189985
124	0xbe346bdb	-0.17619269
125	0xbe4a8081	-0.19775583
126	0xbe87c9ce	-0.26521152
127	0xbe7c268e	-0.24624082
128	0xbe49dd04	-0.19713217
129	0xbe100cbd	-0.1406736
130	0xbe706d6e	-0.23479244
131	0xbf008586	-0.5020374
132	0xbf097871	-0.53699404
133	0xbf247cf0	-0.6425314
134	0xbef57418	-0.47940135
135	0xbe9fdec3	-0.3122464
136	0xbe5e7a35	-0.21726306
137	0x3d949576	0.0725507
138	0x3ef45bc7	0.4772627
139	0x3f6a37eb	0.91491574
140	0x3f679e9b	0.9047639
141	0x3f6f8df3	0.9357597
142	0x3f563222	0.83670247
143	0x3f488666	0.78330076
144	0xbce62338	-0.028092965
145	0xbe0f9fe1	-0.14025833
146	0xbdc0547f	-0.09391116
147	0x3ccc0943	0.02490676
148	0x3d85b087	0.065278105
149	0xbc0e1cd9	-0.00867387
150	0x3d741f49	0.05960015
151	0x3d54e8af	0.051979717
152	0xbdc0584b	-0.093918405
153	0xbc280855	-0.010255893
154	0xbd9f9046	-0.0779119
155	0xbdc7a1c0	-0.09747648
156	0x3d4456d6	0.047934376
157	0xbdbc1b28	-0.09184867
158	0xbaadeb52	-0.0013268983
159	0x3d4169c6	0.047220014
160	0xbd587712	-0.05284793
161	0x3ca34f93	0.019935405
162	0xbd3fac7e	-0.04679536
163	0xbc3b3bc2	-0.011427822
164	0x3db63a51	0.08897842
165	0xbdb043ce	-0.08606683
166	0xba6028e1	-0.00085510133
167	0xbdafd42b	-0.0858539
168	0x3dad3d5a	0.084589675
169	0x3d3cde6b	0.04611055
170	0x3b82a25b	0.0039866394
171	0xbda5c075	-0.08093349
172	0x3d98a298	0.07452887
173	0xbdcb7c26	-0.09935789
174	0xbd315922	-0.043297894
175	0xbda3bbc9	-0.079948016
176	0xbda7cc25	-0.08193234
177	0x3c253f6a	0.01008592
178	0xbd0b7c58	-0.03405413
179	0x3ca39640	0.019969106
180	0xbd040306	-0.032229446
181	0x3dc32ee1	0.09530426
182	0x3ce76f93	0.028251445
183	0xbce9e81b	-0.02855306
184	0xbc97bf13	-0.018523728
185	0x3c61af50	0.013774708
186	0x3d639229	0.05555931
187	0xbd951f31	-0.0728134
188	0xbd75b2cf	-0.05998498
189	0x3d704e73	0.058668565
190	0x3caafb25	0.020871708
191	0xbdd476fd	-0.10374258
192	0xbd1feff5	-0.0390472
193	0x3b081944	0.0020767013
194	0xbcb3d393	-0.021951472
195	0xbdfbcbec	-0.122947544
196	0xbb4370e2	-0.0029821922
197	0xbdf7b700	-0.12095451
198	0x3ce39849	0.027782576
199	0xbd4b8aa4	-0.049692765
200	0x3d289086	0.041153453
201	0xbe01fa91	-0.1269324
202	0x3c52039d	0.012818244
203	0x3d64eeb2	0.0558917
204	0x3d34dc91	0.04415566
205	0x3c9df60a	0.01928236
206	0xbd9ca206	-0.07648091
207	0xbde96177	-0.11395543
208	0xbd2875ce	-0.041127972
209	0x3d205b68	0.03914967
210	0xbdd4d627	-0.10392409
211	0xbdda06bb	-0.10645815
212	0xbd5dba29	-0.054132614
213	0xbcc99f80	-0.024612188
214	0xbbcdd6f3	-0.0062817275
215	0x3dad2562	0.08454396
216	0x3f296744	0.66173196
217	0xbf63d42d	-0.8899563
218	0xc03d55d2	-2.958363
219	0xc01e1064	-2.4697504
220	0xbfa9c650	-1.3263645
221	0xbeb19c25	-0.3468944
222	0x3ee45245	0.44594017
223	0x3f051a43	0.519932
224	0x3f1b41ae	0.60647094
225	0x3f0ffb77	0.5624308
226	0x3f0b9569	0.54524857
227	0x3eb6a32a	0.3567136
228	0xbe3cf744	-0.184537
229	0xbf8dd326	-1.1080062
230	0xc002f982	-2.0464787
231	0xbfe2c6a0	-1.7716866
232	0xbf8e4c16	-1.111697
233	0x3dd411a4	0.10354927
234	0x3f06484a	0.52454054
235	0x3e51e5b6	0.20497784
236	0xbdb4f13e	-0.08835076
237	0xbe808ff3	-0.25109825
238	0x3d8d74e6	0.06907062
239	0x3e80d790	0.2516446
240	0x3f4bfe03	0.79684466
241	0xbda16de0	-0.07882285
242	0xbfca8e5e	-1.5824697
243	0xbfc75955	-1.5574137
244	0xbf4a1341	-0.7893563
245	0xbe6d96e7	-0.23202096
246	0x3ea86d86	0.3289606
247	0x3f0499ce	0.5179719
248	0x3f1c966b	0.6116702
249	0x3f348baa	0.7052561
250	0x3ed0989b	0.4074143
251	0x3e873a6e	0.26411766
252	0xbe9a8106	-0.30176562
253	0xbf779773	-0.9671547
254	0xbfc0c461	-1.505993
255	0xbf7b39d8	-0.9813514

linear1.bias f4 [36]
0	0xbe990a87	-0.29890844
1	0xbe739eba	-0.23791018
2	0xbdcb6a17	-0.099323444
3	0xbdaced43	-0.084436916
4	0x3e1d36ac	0.15352887
5	0xbfca5f7c	-1.581039
6	0x3db49cd2	0.088189736
7	0x3eaf923e	0.3429126
8	0x3f3b01ce	0.7304963
9	0x3f9f4de6	1.2445648
10	0xbe16372a	-0.14669481
11	0x3e22a304	0.15882498
12	0x3e4e1d2d	0.20128317
13	0xbe76e263	-0.24109797
14	0xbdce0892	-0.100602284
15	0xbf5fe24c	-0.87454677
16	0xbe49b072	-0.19696215
17	0x3dd7472f	0.10511624
18	0xbdc67010	-0.09689343
19	0x3fa78dcb	1.3090147
20	0x3da2307b	0.07919403
21	0x3db4b330	0.0882324
22	0xbe88bac3	-0.26704988
23	0xc00bf8b9	-2.1870558
24	0x3e7a348b	0.24434106
25	0x3e8731b4	0.26405108
26	0x3fa669e9	1.3001071
27	0xc01ce09c	-2.451209
28	0xbe28632f	-0.16444086
29	0x3e30de4c	0.172723
30	0x3d8069a2	0.06270148
31	0x3e7e4dba	0.24834338
32	0xbf2bbce9	-0.6708513
33	0x3eb13e24	0.34617722
34	0x3e978aa0	0.2959795
35	0x3f14bb24	0.58098054

linear2.weight f4 [18, 36]
0	0x3f139eff	0.57664484
1	0xbf83d0e6	-1.0298126
2	0xbd3bec47	-0.04587963
3	0x3ee21953	0.44159946
4	0xbec4e4e7	-0.3845589
5	0xbeb6d836	-0.3571183
6	0xbfb309bf	-1.3987349
7	0x3d365af2	0.044520326
8	0x3cd379f8	0.025814995
9	0x3f7272c3	0.9470636
10	0x3e32fb32	0.17478636
11	0x3e057e0e	0.13036367
12	0xbf18b61d	-0.5965288
13	0xbb04f92b	-0.0020290117
14	0xbcfa3be7	-0.030546142
15	0xbf6f5e72	-0.9350349
16	0x3f120254	0.570348
17	0xbf0fd448	-0.5618329
18	0xbdff7a42	-0.12474491
19	0x3eb20a23	0.3477336
20	0x3e2229d9	0.15836276
21	0x3ecccbd8	0.3999927
22	0x3ec909ce	0.39265293
23	0xbd146b79	-0.036235306
24	0x3e9ccd53	0.306254
25	0x3cad2727	0.021136833
26	0xbebe0a08	-0.37117028
27	0xbe74ab65	-0.23893507
28	0x3f1dae0d	0.61593705
29	0x3dd842a3	0.10559585
30	0x3ebdd53f	0.37076756
31	0x3e5c005d	0.21484514
32	0xbf6c9529	-0.924151
33	0x3da4b266	0.08041839
34	0xbf237ed0	-0.63865376
35	0x3d6b4c5e	0.057445876
36	0xbe592fed	-0.21209688
37	0xbe699b6d	-0.22813196
38	0x3b84c612	0.004051932
39	0xbed402ca	-0.41408378
40	0xbf1ba0b7	-0.60792106
41	0x3f4c8dc4	0.7990382
42	0xbe84325e	-0.25819677
43	0xbe538027	-0.20654355
44	0xbe7f505c	-0.24932998
45	0xbeac9a48	-0.33711457
46	0xbe303f49	-0.17211641
47	0x3e06cd8b	0.13164346
48	0x3ef2748f	0.47354552
49	0xbcfbeae0	-0.030751646
50	0xbbff542d	-0.007792017
51	0x3d93dc6e	0.07219778
52	0xbe3b05ca	-0.18263927
53	0x3ec36f2d	0.38170758
54	0x3d1fa989	0.03898004
55	0x3f292f0c	0.6608741
56	0x3eaf47be	0.34234422
57	0x3e9258ae	0.28583282
58	0x3d7d1f49	0.061797414
59	0x3d51aa60	0.051187873
60	0xbe0cd3fd	-0.13752742
61	0x3da049c6	0.07826571
62	0x3ea1d2cd	0.3160614
63	0x3e8b8ad7	0.27254364
64	0x3dc3b82e	0.09556614
65	0xbe269518	-0.16267812
66	0xbd1d436b	-0.038394373
67	0xbf4b8511	-0.7949992
68	0xbe802aaa	-0.2503255
69	0xbfb019d4	-1.3757882
70	0xbd781b53	-0.060572933
71	0x3d721ff3	0.0591125
72	0x3ec3191d	0.38105097
73	0xbf11674e	-0.56798255
74	0x3e085925	0.13315256
75	0x3d1f0ebb	0.038832407
76	0xbf64fc51	-0.89447504
77	0xbe3651a9	-0.17804588
78	0xbe74f92a	-0.23923174
79	0x3dd42b8d	0.10359869
80	0xbdaf07a8	-0.08546382
81	0x3eecb719	0.46233442
82	0x3d64c401	0.055850986
83	0x3ea23b7c	0.31686008
84	0x3e0baccd	0.13640137
85	0xbdb04e7a	-0.08608718
86	0xbde8ab28	-0.113607705
87	0x3f1c7118	0.6111007
88	0xc032d52d	-2.7942612
89	0xbf01de08	-0.5072942
90	0x3dd87b37	0.10570376
91	0x3d8e81c5	0.06958345
92	0x3f291a49	0.6605573
93	0xbf41e1a4	-0.75734925
94	0x3e6ac220	0.22925615
95	0xbda17f3d	-0.07885597
96	0xbf112290	-0.56693363
97	0x3e465760	0.19369268
98	0x3ec85514	0.3912741
99	0x3e540775	0.2070597
100	0x3e594713	0.21218519
101	0x3c320e6d	0.010867697
102	0xbf189614	-0.59604
103	0x3e2d5fc9	0.1693107
104	0x3e5fed58	0.21867883
105	0x3ef38a51	0.47566465
106	0xbdf7cf1e	-0.12100051
107	0xbf86e25e	-1.0537832
108	0x3d36c250	0.044618905
109	0xbdb81bc5	-0.089896716
110	0xbd33ee7b	-0.043928605
111	0xbe1a1ca6	-0.15049991
112	0xbe1a82d6	-0.15088972
113	0xbe580b0f	-0.21097969
114	0xbe09cfc7	-0.13458167
115	0xbe246fcb	-0.1605827
116	0xbd9ea53b	-0.07746359
117	0xbe2a9d88	-0.16661656
118	0xbd5000bc	-0.05078195
119	0xbdca7526	-0.098856255
120	0xbd076f35	-0.03306504
121	0xbd4b3017	-0.04960641
122	0x3e06c94f	0.1316273
123	0xbe09c6dd	-0.13454767
124	0xbbea11fa	-0.0071432563
125	0xbd7a1438	-0.06105444
126	0xba92e156	-0.0011206071
127	0xbbc38584	-0.005966844
128	0x3cdd99f0	0.027050942
129	0x3d222371	0.03958458
130	0xbdf375cd	-0.11887703
131	0xbe273814	-0.16329986
132	0x3c2e6cf1	0.010646091
133	0x3c6a1bef	0.014288886
134	0xbdaa56bb	-0.08317324
135	0xbdc02c78	-0.09383482
136	0x3db7786e	0.08958517
137	0xbd57c4d0	-0.05267793
138	0x3ded4e9b	0.115872584
139	0xbce81bc0	-0.028333545
140	0x3d39d481	0.045368675
141	0xbd6671d4	-0.0562609
142	0x3b8d45db	0.004311306
143	0xbc61c9dc	-0.013781037
144	0xbd722b74	-0.05912347
145	0xbe5d5887	-0.21615802
146	0x3db3c7a2	0.08778311
147	0xbe05bc92	-0.13060215
148	0x3e86fbff	0.26364133
149	0x3e1a26c7	0.15053855
150	0xbc80181f	-0.015636502
151	0xbf251d8a	-0.644982
152	0x3c0dce10	0.008655086
153	0x3e7b396b	0.24533622
154	0xbd74d7a4	-0.059775963
155	0x3b910d38	0.0044266246
156	0xbe0eae1d	-0.13933606
157	0x3f9e69ce	1.2376039
158	0xbd3044b4	-0.04303427
159	0xbbd248dc	-0.006417377
160	0xbdc42b91	-0.09578622
161	0x3dc2e449	0.09516198
162	0xbd70f868	-0.05883065
163	0x3f3e1953	0.7425739
164	0xbda42d2b	-0.080164276
165	0xbd5ab0e7	-0.053391363
166	0xbdb27a0e	-0.08714686
167	0xbe42a3f5	-0.19007857
168	0x3dbbb787	0.091658644
169	0xbf8f3309	-1.118745
170	0x3e139d78	0.14415538
171	0x3ec36d61	0.38169387
172	0x3ca0a341	0.019609096
173	0x3c86fbac	0.016477428
174	0x3c52894c	0.012850117
175	0xbc7e7d4a	-0.015532801
176	0xbd02ab2a	-0.031901516
177	0x3d5f6221	0.054536942
178	0xbcdb37b6	-0.026759963
179	0x3eb7ab54	0.358729
180	0x3caaefb8	0.02086626
181	0xbeb97cb2	-0.36227947
182	0xbe3049c0	-0.17215633
183	0xbeeed300	-0.46645355
184	0x3d0b6e46	0.03404071
185	0x3edcd8c9	0.43134144
186	0x3f04b2e6	0.5183548
187	0xbd38f2bc	-0.045153365
188	0x3e350503	0.17677693
189	0xbec5389c	-0.38519752
190	0xbe98fe58	-0.2988155
191	0xbe236cae	-0.15959427
192	0x3e808e03	0.25108346
193	0xbca2f4c2	-0.0198921
194	0xbd8b72c5	-0.06809
195	0x3d14d075	0.036331613
196	0xbec20f41	-0.37902263
197	0xbf15dd65	-0.58540946
198	0xbdc4e92c	-0.096147865
199	0xbd17e22b	-0.037080925
200	0xbeacf284	-0.33778775
201	0xbe741dae	-0.23839447
202	0xbec7afac	-0.39001215
203	0xbcdfa0f5	-0.02729843
204	0xbd985014	-0.07437149
205	0xbc0385cd	-0.008027506
206	0x3c8f5d92	0.017500672
207	0x3d287681	0.04112864
208	0xbf003ea9	-0.5009561
209	0xbdb4a281	-0.08820058
210	0xbe17fb93	-0.14842062
211	0xbd3d98c8	-0.04628828
212	0x3f44113d	0.76588804
213	0xbacdf73b	-0.0015713939
214	0x3ee6a6fa	0.45049268
215	0x3ea6b19d	0.32557383
216	0x3e41b58f	0.18916915
217	0x3ee1b85d	0.4408597
218	0xbd1963fe	-0.037448876
219	0x3f1675f1	0.58773714
220	0x3ca9a6ff	0.020709513
221	0xbef64a8b	-0.48103747
222	0xbf0e14f2	-0.5550071
223	0x3e143b7c	0.14475816
224	0xbe89e630	-0.26933432
225	0x3f72cea1	0.9484654
226	0x3e43cbe8	0.19120753
227	0x3f1ba191	0.60793406
228	0xbed59f13	-0.41722926
229	0x3dcac108	0.09900099
230	0xbde8b2d4	-0.11362234
231	0x3e7c28c8	0.24624932
232	0xbee3bf3c	-0.44481838
233	0x3f41e61d	0.7574175
234	0xbd0371e6	-0.032091044
235	0x3f1efc4c	0.62103724
236	0x3f150312	0.5820781
237	0x3eaf37a3	0.34222135
238	0x3e22b49e	0.15889212
239	0xbda4f932	-0.08055343
240	0xbfe34458	-1.7755232
241	0x3d4fb1f9	0.050706837
242	0x3ea5e885	0.3240396
243	0x3e283ae7	0.1642872
244	0x3f2449a8	0.6417489
245	0xbde7574d	-0.11295948
246	0x3d877340	0.06613779
247	0x3e46981e	0.19393966
248	0xbf4e1206	-0.8049625
249	0xbfeae93a	-1.8352425
250	0xbf55a754	-0.8345845
251	0xbdeaa281	-0.114567764
252	0x3cc202d2	0.023682985
253	0xbe847c4e	-0.25876087
254	0xbdce6965	-0.10078696
255	0x3e5aef4e	0.2138035

linear2.bias f4 [18]
0	0xbd632378	-0.055453748
1	0x3e68184a	0.22665516
2	0xbda5ebe8	-0.08101636
3	0xbe87cb43	-0.26522264
4	0xbe634ec9	-0.22198023
5	0xbd07b89c	-0.03313504
6	0xbe98f3c9	-0.29873493
7	0xbed45d2b	-0.41477332
8	0xbf163833	-0.58679503
9	0x3e3dfc7e	0.1855335
10	0xbfbe3ed0	-1.4862919
11	0x3e9b96c9	0.30388477
12	0xbeaa169d	-0.33220378
13	0x3edb0f71	0.42785218
14	0xbfa5d410	-1.2955341
15	0x3f38bcc5	0.7216304
16	0x3f06b746	0.52623403
17	0x3d292440	0.041294336

linear3.weight f4 [9, 18]
0	0xbeb8f42b	-0.36123785
1	0x3e8cbbc6	0.2748701
2	0xbeb83a05	-0.35981765
3	0xbde76535	-0.112986006
4	0x3e059c5e	0.1304793
5	0x3ebbd7c1	0.36688045
6	0xbe9c37d4	-0.30511343
7	0xbbb587d1	-0.005539872
8	0x3ddabc15	0.10680405
9	0x3f1d49b5	0.61440593
10	0x3c3306c4	0.010926906
11	0x3e1004e3	0.14064364
12	0xbebf9550	-0.37418604
13	0x3dd73e77	0.10509961
14	0x3db29efe	0.087217316
15	0x3e02b0ee	0.12762806
16	0x3ebdb904	0.37055218
17	0x3e22e541	0.15907766
18	0x3c6a15d2	0.014287429
19	0xbb23a668	-0.0024971012
20	0x3d909bf2	0.07060994
21	0xbe3ee97f	-0.18643759
22	0xbe57fb04	-0.21091849
23	0xbcbbdc30	-0.022932142
24	0x3dc02716	0.09382455
25	0x3c99c7ea	0.018772084
26	0x3f482446	0.7818035
27	0xbb1a002d	-0.002349864
28	0xbce7752c	-0.028254114
29	0x3f3a5866	0.72791135
30	0x3da1123b	0.07864805
31	0x3cf74284	0.030183084
32	0x3f1a0560	0.6016445
33	0x3eb5cbc4	0.35507023
34	0x3f3690a0	0.7131443
35	0xbb5fa4be	-0.0034125294
36	0xbf027b4f	-0.50969404
37	0xbe61ead5	-0.22062238
38	0x3ec458db	0.3834904
39	0xbc21bc6f	-0.009871586
40	0x3cc22d55	0.023703257
41	0x3f257e76	0.6464609
42	0xbf2328bb	-0.63734025
43	0x3ea78a2e	0.3272261
44	0x3e08defe	0.13366315
45	0xbe8b59a0	-0.27216816
46	0x3d7b4ba6	0.06135144
47	0x3c5020f2	0.012703167
48	0x3e909bfd	0.2824401
49	0xbeb7a700	-0.35869598
50	0x3eae6236	0.34059304
51	0x3d50f528	0.05101505
52	0x3d8b1889	0.06791789
53	0xbe8a64d6	-0.27030057
54	0x3f0dd124	0.5539725
55	0x3e6d8a4f	0.23197292
56	0xbf53d043	-0.8273966
57	0x3e30178f	0.17196487
58	0xbc5a35c4	-0.013318483
59	0xbf4be2d0	-0.79642963
60	0x3f1dd8b8	0.6165881
61	0xbed2a279	-0.41139582
62	0xbc026c95	-0.007960458
63	0x3ea1585e	0.3151273
64	0xbd7a3d83	-0.06109382
65	0xbc77b9cc	-0.015119981
66	0xbe8c1f24	-0.27367508
67	0x3e90d74f	0.28289267
68	0x3fa07bbf	1.2537764
69	0xba8549e3	-0.0010169115
70	0xbd4ee531	-0.050511543
71	0x3e9e80aa	0.30957538
72	0x3d985648	0.07438332
73	0x3efcd59d	0.49381724
74	0x3d8b88f2	0.068132296
75	0xbe04b0dd	-0.12958093
76	0x3e4031a2	0.18768933
77	0x3dbcdcff	0.09221839
78	0xbd814d63	-0.063135885
79	0xbde57d02	-0.11205484
80	0x3eb7f589	0.35929516
81	0x3db40010	0.087890744
82	0x3f1ce273	0.61283034
83	0x3d8c6d3b	0.068567716
84	0x3e5ad43d	0.21370025
85	0xbefcb82d	-0.49359265
86	0x3dd04546	0.10169463
87	0xbeabb52b	-0.33536658
88	0xbfbb6eed	-1.4643227
89	0xbd874c56	-0.06606357
90	0xbf1fc56c	-0.62410617
91	0x3e28c900	0.16482925
92	0xbee82633	-0.45341644
93	0x3d32b391	0.04362828
94	0x3d050e97	0.032484617
95	0x3e82c243	0.25538835
96	0xbe04a597	-0.12953793
97	0x3bf78270	0.007553391
98	0x3dd5db2f	0.104421966
99	0xbedd3ca4	-0.43210328
100	0x3d409493	0.04701669
101	0xbb66738c	-0.0035164086
102	0x3ef0b44b	0.47012553
103	0xbba6561c	-0.005076183
104	0x3deefa9b	0.11668893
105	0x3dd4e16a	0.10394557
106	0xbbfb4016	-0.0076675517
107	0x3f3dd74c	0.7415664
108	0x3d7eab12	0.062174864
109	0xbcf7aeed	-0.030234778
110	0x3c83afd1	0.016075047
111	0xbd622fb7	-0.055221286
112	0x3f3dfb57	0.7421164
113	0xbccdd85c	-0.025127582
114	0x3d4f04c3	0.05054165
115	0x3c7e009e	0.015503077
116	0x3f6df6ec	0.929549
117	0xbc558671	-0.013032542
118	0xbcc23b9f	-0.02371007
119	0xbe2140d0	-0.1574738
120	0x3d27f7c6	0.04100778
121	0x3d939e70	0.07207954
122	0x3f279430	0.6546049
123	0x3f02c721	0.51085097
124	0x3f4ae3c6	0.79253805
125	0x3cf1647e	0.029466864
126	0xbea72b2b	-0.32650122
127	0x3edb7186	0.4286005
128	0x3e3db88c	0.1852743
129	0x3d1ac1ba	0.03778241
130	0x3b0fd7fa	0.00219488
131	0x3e2d1663	0.16903071
132	0xbe1c94f2	-0.15291193
133	0xbf8ca18c	-1.09868
134	0xbe896411	-0.26834157
135	0xbebf2ca4	-0.37338746
136	0xbee3392b	-0.44379553
137	0xbcae7230	-0.021294683
138	0x3e846af9	0.25862864
139	0x3ed6ef2a	0.41979343
140	0x3ea196e8	0.31560445
141	0x3ef887b4	0.48541033
142	0xbdb1954a	-0.08671053
143	0xbe84256d	-0.25809804
144	0x3e3a4839	0.18191613
145	0xbeb8d34f	-0.36098716
146	0xbe564ee2	-0.20928529
147	0xbd9b2d89	-0.075770445
148	0x3c85b0d5	0.016319672
149	0xbe150803	-0.14553837
150	0x3d81db34	0.06340638
151	0x3f5ae284	0.85501885
152	0x3e912cd2	0.28354508
153	0x3e96e1f0	0.29469252
154	0x3eb9e769	0.36309364
155	0x3d0288e0	0.031868815
156	0xbe861885	-0.26190582
157	0xbe8b3d65	-0.27195278
158	0xbc00843a	-0.007844025
159	0xbea45452	-0.3209558
160	0xbc10031c	-0.008789804
161	0x3e37dcf7	0.17955385

linear3.bias f4 [9]
0	0x3e40ac16	0.18815646
1	0x3d3abae9	0.045588408
2	0x3e9aca48	0.30232453
3	0xbeb1342e	-0.34610122
4	0xbe3642b7	-0.17798887
5	0x3e641a98	0.2227577
6	0xbd18f24a	-0.03734044
7	0x3eb037cc	0.3441757
8	0xbe884d4c	-0.26621473

linear1.weight f4 [18, 9]
0	0xbee1fd98	-0.4413879
1	0x3efd4075	0.4946324
2	0xbd178c0e	-0.0369988
3	0xbe198d1d	-0.14995237
4	0xbf99d14f	-1.2017001
5	0xbe2df9f9	-0.16989888
6	0x3ed0a53f	0.40751073
7	0x3df009da	0.11720629
8	0xbe480d74	-0.19536382
9	0x3e928933	0.286203
10	0xbca91962	-0.020641986
11	0x3f1a45f7	0.6026301
12	0xbe8af384	-0.27138913
13	0xbdde3a80	-0.10851002
14	0xbed8df54	-0.42357886
15	0xbcc6e609	-0.024279611
16	0xbe9655f5	-0.29362455
17	0x3ebe9ddb	0.3722981
18	0xbe126c46	-0.14299116
19	0x3d5db22f	0.054125007
20	0xbf477aac	-0.7792156
21	0x3e727aee	0.23679706
22	0x3d10a12d	0.03530996
23	0x3f2a9437	0.6663241
24	0x3b3d0627	0.0028842778
25	0x3e39f1b6	0.18158612
26	0xbe843277	-0.25819752
27	0xbf22b2ba	-0.63553965
28	0x3f185488	0.59503984
29	0x3e20bf0a	0.15697876
30	0xbda85f34	-0.082212836
31	0x3ea92fd7	0.3304431
32	0x3e0a603a	0.1351327
33	0xbeedabbf	-0.46420094
34	0xbe07d926	-0.1326643
35	0x3e3e1f72	0.18566683
36	0xbe464850	-0.19363523
37	0xbe88cdb4	-0.2671944
38	0xbe63187e	-0.22177312
39	0xbe6e43a3	-0.23267989
40	0x3cd79900	0.026318073
41	0xbe370978	-0.17874706
42	0xbe5bf44b	-0.21479909
43	0x3d94c6cb	0.07264479
44	0xbe09c4f8	-0.13454044
45	0x3c340216	0.010986825
46	0xbe8ea9d0	-0.27863932
47	0x3ef81295	0.48451677
48	0xbf083948	-0.53212404
49	0xbe22f151	-0.15912367
50	0x3f1a79bf	0.6034202
51	0x3e749931	0.23886563
52	0x3e18d4ec	0.14924973
53	0xbe31ffd1	-0.17382742
54	0xbec38253	-0.38185367
55	0xbda4b931	-0.08043135
56	0xbea2ebbc	-0.31820476
57	0x3b427717	0.0029673034
58	0x3e9c2851	0.3049951
59	0x3e020dd3	0.12700586
60	0x3d3ec7e8	0.046577364
61	0x3f2696cc	0.6507385
62	0xbf5e8c42	-0.86932766
63	0xbd32dd9e	-0.043668382
64	0x3eb6ec2d	0.35727063
65	0xbf17da73	-0.593177
66	0x3f087426	0.5330223
67	0x3e1f2658	0.1554197
68	0xbf2dd70c	-0.6790626
69	0xbe92ab31	-0.28646234
70	0xbdb12fc5	-0.086516894
71	0x3e4c6c37	0.19963156
72	0x3f406a98	0.7516265
73	0x3ebff378	0.3749044
74	0x3e5bc4e5	0.21461828
75	0xbe510ce5	-0.20415075
76	0xbe7c3c58	-0.24632394
77	0x3e154137	0.14575659
78	0xbefdbe73	-0.49559364
79	0x3d88a4a3	0.06672027
80	0xbdb60eeb	-0.08889564
81	0xbf7ab20a	-0.97927916
82	0xbee82004	-0.45336926
83	0xbe84b0b3	-0.2591606
84	0x3e800f63	0.2501174
85	0x3ea750b0	0.32678747
86	0xbe2e5156	-0.17023215
87	0x3f176f8f	0.591546
88	0xbdaad302	-0.08341028
89	0x3e0d09a2	0.13773206
90	0x3ea9789a	0.33099824
91	0xbe8a97b5	-0.27068868
92	0x3ccfd1b8	0.025368556
93	0x3def7ef9	0.1169414
94	0x3f41f546	0.7576488
95	0x3dc06fca	0.09396322
96	0xbe3d1d3d	-0.18468185
97	0xbdad4eeb	-0.08462318
98	0x3df388b4	0.118913084
99	0x3dc7e827	0.097610764
100	0xbdb0401f	-0.0860598
101	0xbea21f22	-0.31664377
102	0xbdd8a0ad	-0.105775215
103	0x3e957922	0.2919398
104	0xbf4dfbda	-0.8046242
105	0x3c65d939	0.014028841
106	0x3ed50034	0.41601717
107	0xbeb15d00	-0.34641266
108	0x3e3927e7	0.18081628
109	0x3e1c4223	0.15259604
110	0xbe01fe06	-0.12694559
111	0x3e03a53a	0.12855998
112	0x3d998208	0.074955046
113	0xbdadbaa8	-0.084828675
114	0xbe52e943	-0.20596795
115	0x3eca0f0f	0.39464614
116	0xbefc1711	-0.49236348
117	0xbeca3d2f	-0.39499804
118	0x3d5a3c02	0.053279884
119	0x3e3a8492	0.18214634
120	0xbec177fe	-0.3778686
121	0xbe94bd32	-0.29050595
122	0xbdf4cd14	-0.11953178
123	0x3dcf26ac	0.10114798
124	0xbedb3c21	-0.42819312
125	0x3f2544cb	0.64558095
126	0x3e96b180	0.29432297
127	0xbd1800e4	-0.037110224
128	0xbf88eac5	-1.0696646
129	0x3e7c034a	0.2461063
130	0xbe972e92	-0.29527718
131	0xbf5a9e86	-0.8539814
132	0x3e022447	0.12709151
133	0xbf2ab6e6	-0.6668533
134	0x3efc7e9f	0.49315354
135	0x3f363d80	0.7118759
136	0xbf392c5c	-0.7233331
137	0xbe47a88d	-0.19497891
138	0x3dffbac9	0.12486798
139	0xbeb2f34b	-0.34951243
140	0xbe346f48	-0.17620575
141	0x3f1eca42	0.6202737
142	0x3e31eb78	0.1737498
143	0xbe49fa04	-0.1972428
144	0x3de32372	0.11090745
145	0x3d004117	0.031312075
146	0xbed4cc1c	-0.41561973
147	0x3ec62694	0.38701308
148	0xbed80c6e	-0.42196983
149	0x3d3423dc	0.04397951
150	0x3d87f9dd	0.066394545
151	0x3ea0b448	0.31387544
152	0xbee45f3b	-0.44603905
153	0xbefcdad6	-0.4938571
154	0x3ce5d098	0.028053567
155	0x3f04ac99	0.51825863
156	0xbef72b02	-0.48275
157	0x3e4b28dd	0.19839807
158	0xbf0eeaa6	-0.55826795
159	0x3e2df449	0.16987719
160	0x3e8415c0	0.25797844
161	0xbec6bdbe	-0.38816637

linear1.bias f4 [18]
0	0x3f875821	1.057377
1	0xbe979015	-0.29602113
2	0x3ccaca46	0.024754655
3	0xbd8c9aaa	-0.06865437
4	0xbea400d4	-0.32031882
5	0xbf1e6a55	-0.61881
6	0x3d4d4010	0.050109923
7	0x3f4e0409	0.8047491
8	0xbf2d6279	-0.6772838
9	0x3f5a93a8	0.85381556
10	0xbf6b102b	-0.91821545
11	0x3e912e67	0.28355715
12	0x3d29dea3	0.04147209
13	0x3e1aaf71	0.15105988
14	0xbd80fdc8	-0.06298405
15	0x3d132998	0.03592834
16	0x3c6f3aad	0.014601392
17	0x3eba7872	0.36420017

linear2.weight f4 [36, 18]
0	0x3dc3e4b4	0.09565106
1	0x3bc69b8c	0.006061023
2	0x3d9c867d	0.07642839
3	0x3f08ea19	0.53482205
4	0x3e5a4407	0.21315013
5	0xbed3836a	-0.41311198
6	0x3daa63af	0.083197944
7	0x3ea823b1	0.3283973
8	0x3f60c253	0.87796515
9	0xbf56241b	-0.8364884
10	0xbd3c8516	-0.04602536
11	0xbdadabc2	-0.08480026
12	0x3ca61a53	0.020276224
13	0xbdd61524	-0.10453251
14	0x3db72ca2	0.0894406
15	0xbeff7483	-0.4989358
16	0x3e223f09	0.15844359
17	0x3ddce0f6	0.107850954
18	0xbd9b71b7	-0.07590049
19	0x3dd9a718	0.10627574
20	0xbe2422ff	-0.16028975
21	0x3db04b6a	0.08608134
22	0x3e5aab02	0.21354297
23	0xbeb343a2	-0.35012537
24	0x3e8e856a	0.27836162
25	0x3d2b5391	0.041827742
26	0xbf23ac3e	-0.63934696
27	0x3eada595	0.33915392
28	0xbdcbe463	-0.09955671
29	0x3f0ed9e6	0.55801237
30	0x3f0d7156	0.5525106
31	0xbae8f538	-0.0017773276
32	0xbe6b9cbb	-0.23009007
33	0xbe76118a	-0.24030128
34	0xbe014c29	-0.12626709
35	0x3ddb7777	0.107161455
36	0x3ee14735	0.4399964
37	0xbf29e71d	-0.66368276
38	0xbe8ce95a	-0.27521783
39	0x3f18a316	0.5962385
40	0xbe6e2db1	-0.23259617
41	0xbf93faa7	-1.1560868
42	0x3ec3303b	0.38122734
43	0x3da3d1d0	0.07999003
44	0xbf11260d	-0.56698686
45	0x3f39c5cf	0.72567457
46	0xbf428f38	-0.75999784
47	0x3c39c7af	0.011339112
48	0xbeb7f9f5	-0.3593289
49	0xbede1197	-0.43372795
50	0xbed9bacc	-0.42525327
51	0xbeebc9bf	-0.46052358
52	0x3e50fbbb	0.20408528
53	0x3cedda1c	0.029034667
54	0xbe3888dc	-0.18020958
55	0xbd847ba9	-0.06468899
56	0x3a37ed63	0.00070162694
57	0xbc97460b	-0.018466016
58	0x3e697d0e	0.22801611
59	0xbe90091a	-0.28131944
60	0x3dfd6cd5	0.12374274
61	0xbe3f9299	-0.18708266
62	0xbb23a8e8	-0.0024972502
63	0xbe67626b	-0.22596137
64	0xbe5fce2e	-0.21855995
65	0xbe4046e9	-0.1877705
66	0xbe0f06a3	-0.13967375
67	0x3b502958	0.0031762924
68	0xbd33098f	-0.043710288
69	0xbe65201d	-0.22375531
70	0xbe6e19cb	-0.23252027
71	0xbe5c3813	-0.21505766
72	0x3f13b844	0.5770304
73	0x3e50b083	0.20379834
74	0xbef6c76b	-0.4819902
75	0xbe2741d4	-0.16333705
76	0x3e4878f3	0.19577388
77	0xbd4ce952	-0.0500272
78	0xc0b49f90	-5.644478
79	0xbe494495	-0.19655068
80	0xbe3d725b	-0.18500654
81	0x3d64529e	0.055742852
82	0xc007c34d	-2.1212952
83	0xbf07f4db	-0.53107995
84	0xbf1895c9	-0.59603554
85	0x3e58afb9	0.21160783
86	0xbe2f6217	-0.17127262
87	0xbe5b42f2	-0.21412256
88	0xbf8aa30f	-1.0831012
89	0xbf567ff9	-0.8378902
90	0xbdd598fa	-0.104295686
91	0xbea3fea4	-0.32030213
92	0xbe6e984b	-0.23300283
93	0xbe3dec91	-0.18547274
94	0xbe47b1e6	-0.19501457
95	0x3b459fac	0.0030154986
96	0xbe4149b5	-0.18875773
97	0x3d058f7d	0.032607544
98	0xbe082656	-0.13295874
99	0xbe3157c9	-0.17318644
100	0xbde06ca7	-0.10958224
101	0x3c3baaa2	0.011454256
102	0x3bff872e	0.007798097
103	0x3da9edbf	0.082972996
104	0xbd953e0b	-0.072872244
105	0xbe624877	-0.22097956
106	0xbd32cf36	-0.043654643
107	0xbcd5d7fc	-0.026103966
108	0x3eb4c66e	0.3530764
109	0x3cfc2fcd	0.030784512
110	0xbf6aeab8	-0.917644
111	0xbe85167e	-0.25993723
112	0xbd107d51	-0.03527576
113	0xbeae1958	-0.3400371
114	0x3ddfaba3	0.10921409
115	0xbe968cd7	-0.29404327
116	0x3cad3202	0.02114201
117	0xbdd8737a	-0.105689004
118	0xbf8c2886	-1.0949867
119	0x3f81524d	1.0103241
120	0x3eac5930	0.33661795
121	0xbea218a7	-0.31659433
122	0xbf76c091	-0.96387583
123	0x3cced78d	0.025249267
124	0xbf8ced79	-1.1009971
125	0x3f135555	0.5755208
126	0x3d85c004	0.06530765
127	0x3e715e28	0.23571074
128	0xbec5b551	-0.38614896
129	0xbea53253	-0.32264957
130	0x3d37b935	0.04485436
131	0xbf149f12	-0.5805522
132	0xbe96f86a	-0.294864
133	0x3f059bfa	0.52191126
134	0xbde52a23	-0.111896776
135	0x3d77a898	0.060463518
136	0xbc6d7cfe	-0.0144951325
137	0xbeb0d432	-0.34536892
138	0xbeb3b90e	-0.35102123
139	0xbc1a3365	-0.0094116675
140	0x3f1145a3	0.5674688
141	0x3e7f8c44	0.24955851
142	0x3e58cc34	0.21171647
143	0xbe56b750	-0.20968366
144	0x3ed78f88	0.42101693
145	0xbf2d8ce6	-0.6779312
146	0xbc791d3b	-0.015204723
147	0x3eb7963a	0.358568
148	0xbde01346	-0.10941176
149	0x3ef446d9	0.47710302
150	0x3d866cd4	0.06563726
151	0xbef4cc5e	-0.4781217
152	0xbe3baeca	-0.18328395
153	0x3df2002c	0.11816439
154	0xbf26e450	-0.6519213
155	0xbee667ea	-0.45001155
156	0xbeaa63b1	-0.33279184
157	0xbf1dd22b	-0.61648816
158	0x3fbc423e	1.4707716
159	0xbed1492a	-0.40876132
160	0xbe7759a5	-0.2415529
161	0xbf620938	-0.88295317
162	0x3e1024e1	0.14076568
163	0x3e5aec41	0.21379186
164	0xbf7f59f3	-0.99746627
165	0x3d344a52	0.04401619
166	0xbe48a278	-0.19593227
167	0x3ed50e1b	0.41612324
168	0xbec9098a	-0.3926509
169	0xbec1566f	-0.37761256
170	0x3e88e484	0.26736844
171	0xbe83af86	-0.2571985
172	0xbdffc862	-0.12489392
173	0xbec1d726	-0.37859458
174	0xbee02920	-0.43781376
175	0xbe87e939	-0.26545122
176	0xbe965382	-0.29360586
177	0xbd8a9727	-0.06767111
178	0x3cc7d76d	0.024394715
179	0xbe297dcf	-0.16551898
180	0x3b20a888	0.0024514515
181	0xbe7b87f2	-0.24563578
182	0xbe4f34a6	-0.20234928
183	0xbe51b52e	-0.20479271
184	0xbe0b96a5	-0.13631685
185	0xbdc6d957	-0.09709423
186	0xbcb5ab6f	-0.022176472
187	0xbe7ce534	-0.24696809
188	0xbe633b3b	-0.22190563
189	0xbe872d00	-0.2640152
190	0xbb3bbbf1	-0.0028645957
191	0x3e013cb8	0.12620819
192	0xbeb7553a	-0.3580721
193	0x3da3769e	0.07981609
194	0xbe0ba984	-0.13638884
195	0xbe029a95	-0.12754281
196	0xbd10ba4e	-0.035333924
197	0x3ded4923	0.11586215
198	0xbd2a0f1c	-0.041518316
199	0xbf218e96	-0.63108194
200	0x3f3addc4	0.7299464
201	0xbe0456e5	-0.12923773
202	0xbe53f8ca	-0.20700374
203	0xbe6a754f	-0.22896312
204	0x3dffb566	0.12485771
205	0x3db6280b	0.08894356
206	0xbd0507f9	-0.032478306
207	0x3c398630	0.011323497
208	0x3db3b2aa	0.08774312
209	0xbe877e43	-0.26463518
210	0x3e83dcd7	0.25754425
211	0xbe1bd06f	-0.1521623
212	0xbe9ff4e5	-0.31241527
213	0x3e17b709	0.14815916
214	0x3ebcf42a	0.36905032
215	0xbf03c4f5	-0.5147241
216	0xbd65e467	-0.056126025
217	0xbe7ba7fa	-0.24575797
218	0xbde4f020	-0.11178613
219	0x3dd91d07	0.1060124
220	0x3e2cb9aa	0.168677
221	0x3d15e58d	0.03659587
222	0x3f0c59ab	0.5482432
223	0xbe8259d5	-0.2545916
224	0xbd282bd6	-0.04105743
225	0x3d8a9a87	0.06767755
226	0xbde4f6e1	-0.11179901
227	0xbea1abf7	-0.3157651
228	0x3e940680	0.2891121
229	0xbeb95cbf	-0.36203572
230	0x3e2e36c7	0.17013083
231	0xbde3a1ea	-0.11114867
232	0x3db44739	0.08802647
233	0xbb01ca8c	-0.0019804565
234	0xbd47c2c6	-0.048769735
235	0xbd4d983c	-0.05019401
236	0xbea23599	-0.31681517
237	0xbf15058c	-0.5821159
238	0xbd5036be	-0.050833456
239	0x3ea70911	0.32624105
240	0x3dc3e9ad	0.095660545
241	0xbe82a840	-0.2551899
242	0xbf5f752a	-0.87288153
243	0x3f5145a1	0.8174687
244	0x3d9a2f60	0.07528567
245	0x3d5bb710	0.05364138
246	0xbe04e6a4	-0.12978607
247	0x3df24e1e	0.11831306
248	0xbe1dc347	-0.15406524
249	0x3f0d216f	0.5512914
250	0xbe004137	-0.12524877
251	0x3d12614c	0.03573732
252	0x3e669071	0.22516038
253	0x3edd4ad9	0.43221167
254	0xbfa0b563	-1.2555355
255	0xbe7bccf1	-0.24589898

linear2.bias f4 [36]
0	0xbef71a1f	-0.48262116
1	0xbe276d23	-0.16350226
2	0xbe58f1d9	-0.21186008
3	0xbda9b6ae	-0.082867965
4	0xbe22e6fd	-0.15908428
5	0xbdba2509	-0.09089095
6	0xbf46f31a	-0.77714694
7	0x3b7936e7	0.003802711
8	0xbe9336e8	-0.28752828
9	0xbe34047f	-0.1757984
10	0xbe955781	-0.29168323
11	0xbd6b2d33	-0.057416152
12	0x3dd28faa	0.10281308
13	0x3ebeff34	0.3730408
14	0xbe4eb08b	-0.20184533
15	0xbe6a9f25	-0.22912271
16	0xbf6979a0	-0.9120121
17	0x3ec2e1c7	0.3806288
18	0xbd183541	-0.037160162
19	0x3f2a4b1b	0.6652085
20	0xbec8492e	-0.39118332
21	0x3e94a25a	0.29030114
22	0x3dcb38a4	0.09922913
23	0x3e22493f	0.15848254
24	0xbed58e05	-0.41709915
25	0xbf5a0b26	-0.8517326
26	0x3ead73cc	0.33877409
27	0xbbaf657b	-0.0053526736
28	0xbf4ba412	-0.79547226
29	0xbdcc82af	-0.099858634
30	0x3e117d05	0.14207847
31	0xbe9e8213	-0.30958614
32	0x3ea50303	0.3222886
33	0x3f35660b	0.7085883
34	0xbe044b05	-0.12919243
35	0x3d226a54	0.039652184

linear3.weight f4 [72, 36]
0	0xbc7459d6	-0.014913997
1	0x3d86f650	0.06589949
2	0xbd8e2306	-0.06940274
3	0xbd973cbd	-0.07384632
4	0xc023103a	-2.5478654
5	0xbc3207d5	-0.010866125
6	0xc0d9c885	-6.8057275
7	0xbf605e94	-0.87644315
8	0xbe4fad5b	-0.20280974
9	0xbcf2d4a2	-0.029642407
10	0xbe35d873	-0.1775835
11	0x3ef86f60	0.48522472
12	0x3ed94599	0.4243591
13	0x3ecb7106	0.39734668
14	0xbdc234c8	-0.094827235
15	0x3ec2e5ba	0.38065892
16	0x3ea046a3	0.31303892
17	0xbf024073	-0.5087959
18	0x3ca35ec4	0.019942649
19	0xbeba150e	-0.36344188
20	0xbf45a47f	-0.77204126
21	0x3e0da21e	0.13831374
22	0x3ef8623a	0.4851244
23	0x3dc391cf	0.09549295
24	0xc02fc16e	-2.746181
25	0x3e242d41	0.16032888
26	0xc064c1fc	-3.5743399
27	0xc092c963	-4.5870833
28	0xbe296bbf	-0.16545008
29	0x3e0705bc	0.13185781
30	0xbdff8e0f	-0.124782674
31	0xbe8e7eff	-0.27831265
32	0xbed9cd57	-0.42539474
33	0xbe14a738	-0.14516914
34	0xbf8bf4b8	-1.0934057
35	0x3b36e2ec	0.0027906252
36	0xbe26b150	-0.16278577
37	0x3dd6c151	0.10486091
38	0xbcf53fa3	-0.02993757
39	0x3e3d6556	0.18495688
40	0xc00f9928	-2.243723
41	0x394e2edb	0.00019663146
42	0xc0c51881	-6.159241
43	0xbefcfe4a	-0.49412757
44	0xbf03b03a	-0.51440775
45	0xbe71c79a	-0.23611298
46	0xbe1f69b8	-0.15567672
47	0x3ef3e926	0.47638816
48	0x3e9b7a84	0.3036691
49	0x3ede676a	0.43438274
50	0xbf135e55	-0.57565814
51	0x3ea1db2f	0.31612536
52	0x3e974878	0.29547477
53	0xbf44eb7c	-0.7692182
54	0x3e3d9f5a	0.18517819
55	0xbebdf2af	-0.37099215
56	0xbf29f9a9	-0.66396576
57	0x3e1e4594	0.1545623
58	0x3e82c4ce	0.25540775
59	0x3de4211d	0.11139128
60	0xbf8d1f9b	-1.102527
61	0x3e31d03e	0.17364594
62	0xc0504b63	-3.2546012
63	0xc0ad7675	-5.42071
64	0xbe8b2295	-0.27174821
65	0x3d430d49	0.04762009
66	0xbd6db63a	-0.058035113
67	0xbc9e5630	-0.019328207
68	0xbec8e4aa	-0.39236957
69	0xbe1c38e9	-0.15256085
70	0xbfb9a3cb	-1.4503111
71	0xbda7f1ce	-0.082004175
72	0xbe9e10ca	-0.30872184
73	0x3de1151c	0.109903544
74	0xbc74a96a	-0.01493297
75	0xbd2423d0	-0.040073216
76	0xc055fa79	-3.3434126
77	0xbbd597dd	-0.0065183477
78	0xc0d8d6f4	-6.7762394
79	0xbe36336e	-0.17793056
80	0xbf9983d6	-1.1993358
81	0xbf369ca2	-0.7133275
82	0x3e1e8782	0.1548138
83	0x3eccff65	0.400386
84	0x3e3a05d4	0.18166286
85	0x3ef09599	0.46989134
86	0xbf24be75	-0.64353114
87	0x3e7f03c8	0.24903786
88	0x3e8db425	0.27676502
89	0xbf8a59b8	-1.080863
90	0x3e9a6a62	0.3015929
91	0xbec4d18f	-0.3844113
92	0xbf007706	-0.50181615
93	0x3dc03344	0.09384778
94	0xbd86bce0	-0.06578994
95	0x3d7194ab	0.05897967
96	0xbedf7d89	-0.43650463
97	0x3e2bf7e4	0.16793782
98	0xc0124094	-2.2851915
99	0xc03220cc	-2.7832518
100	0xbe8ac9a7	-0.27106974
101	0xbe1ee7cc	-0.15518111
102	0x3cda92c8	0.026681319
103	0x3e196dc7	0.14983283
104	0xbea76ad9	-0.32698706
105	0xbe0ddc1f	-0.13853501
106	0xbff6498a	-1.9241192
107	0xbe21d879	-0.15805234
108	0xbed068cc	-0.40704954
109	0x3de5e7ca	0.11225851
110	0xbd3cebc5	-0.046123285
111	0xbd0f4131	-0.03497428
112	0xc0996d81	-4.794617
113	0x3dd2f7c8	0.10301167
114	0xc0c3f5db	-6.1237617
115	0x3dc98a35	0.09840814
116	0xbf62d8ba	-0.8861195
117	0xbf5db9c4	-0.8661158
118	0x3dafd31c	0.08585188
119	0x3e8b6597	0.27225944
120	0x3dc8ae13	0.09798827
121	0x3f007bac	0.5018871
122	0xbef40857	-0.47662613
123	0x3e2fa9ba	0.1715459
124	0x3e8771ad	0.26453915
125	0xbfba3650	-1.4547825
126	0x3ebb8d71	0.3663135
127	0xbecb9f8e	-0.39770168
128	0xbea93ae6	-0.33052748
129	0xbab7cdad	-0.0014023088
130	0xbdadceed	-0.084867336
131	0xbcb56423	-0.022142475
132	0xbe454e34	-0.19268113
133	0x3e18090a	0.14847198
134	0xbfc01839	-1.5007392
135	0xc0427908	-3.0386372
136	0xbe43a0a6	-0.19104251
137	0xbf126fc0	-0.57201767
138	0x3df9f303	0.12204554
139	0x3e2a36e9	0.16622509
140	0xbe605a88	-0.21909535
141	0xbddad62d	-0.10685382
142	0xc02292dc	-2.5402136
143	0xbe73cca8	-0.23808539
144	0xbee7d1e8	-0.45277333
145	0x3e0431ff	0.12909697
146	0xbdd22b1c	-0.10262129
147	0xbdcab20c	-0.09897241
148	0xc0516c93	-3.2722518
149	0x3c99fe8b	0.018798133
150	0xc0c01bd2	-6.003396
151	0x3e9d94c2	0.30777556
152	0xbebbdced	-0.3669199
153	0xbf4028b0	-0.75062084
154	0xbdcd56ad	-0.10026298
155	0x3ddc68c3	0.10762169
156	0xbda1dd62	-0.079035535
157	0x3efdb813	0.495545
158	0xbea8b2ad	-0.3294882
159	0x3e0903e5	0.13380392
160	0x3e7a2c80	0.24431038
161	0xbfe696a6	-1.8014724
162	0x3ec1b793	0.3783537
163	0xbebf35ba	-0.37345678
164	0xbe2c780c	-0.16842669
165	0xbd65e464	-0.056126013
166	0x3e1847bb	0.14871113
167	0x3c3f9092	0.011692183
168	0xbe2e61f1	-0.17029549
169	0x3e156a4e	0.14591333
170	0xbf70299a	-0.9381348
171	0xc0047cac	-2.0701094
172	0xbdb914f2	-0.09037198
173	0xbf89374b	-1.0719999
174	0x3e1c3f72	0.15258577
175	0x3da80f89	0.08206088
176	0xbe223e02	-0.15843967
177	0xbdd104ea	-0.102060154
178	0xc04b77d0	-3.1791878
179	0xbed4b941	-0.41547588
180	0xbef5d6a6	-0.48015326
181	0x3e083633	0.13301925
182	0xbdea722b	-0.11447557
183	0x3e0f88df	0.14017056
184	0xbfcb629a	-1.5889466
185	0x3d9b78be	0.07591389
186	0xc0d48040	-6.6406555
187	0x3ee70fd7	0.45129272
188	0xbde13e9c	-0.1099827
189	0xbeed5f9b	-0.46362004
190	0x3d6da3f4	0.058017686
191	0xbda0f151	-0.078585275
192	0xbebe58a9	-0.37177017
193	0x3eec75ef	0.46183726
194	0xbe35d523	-0.17757086
195	0x3e437b4c	0.19090003
196	0x3e6780b1	0.22607686
197	0xc00e40af	-2.222698
198	0x3eabf101	0.3358231
199	0xbeadaa06	-0.3391878
200	0xbc30f827	-0.010801352
201	0xbd362bca	-0.044475354
202	0x3e616617	0.220116
203	0x3d788aca	0.060679235
204	0xbe1a5a33	-0.15073471
205	0x3e1af7af	0.15133546
206	0xbf1b91c0	-0.6076927
207	0xbf4da8cd	-0.80335695
208	0x3bf7579f	0.007548287
209	0xbfe42496	-1.7823665
210	0x3e076b47	0.13224517
211	0xbc36b218	-0.011150859
212	0xbde4bb15	-0.111684956
213	0xbdfc5073	-0.12320032
214	0xc0399922	-2.8999715
215	0xbf33bef4	-0.70213246
216	0xbef8ba03	-0.48579416
217	0x3e05f547	0.13081847
218	0xbdbb8e67	-0.091580205
219	0xbd13c79c	-0.036079034
220	0xbf5e16a4	-0.86753297
221	0xbddb5f7d	-0.10711572
222	0xc0f95990	-7.792183
223	0x3f088ddb	0.53341454
224	0x3d742f53	0.059615444
225	0xbed5fc4e	-0.41794056
226	0x3e191afe	0.14951703
227	0xbe9aafa9	-0.30212143
228	0xbf30ca76	-0.6905893
229	0x3ed0f814	0.4081427
230	0xbd20523d	-0.03914093
231	0x3e2cb857	0.16867195
232	0x3e59e028	0.21276915
233	0xc016581a	-2.3491273
234	0x3e6bf3dd	0.23042245
235	0xbea21279	-0.3165472
236	0x3e079b35	0.132428
237	0x3d10141e	0.035175435
238	0x3e59fa05	0.21286781
239	0x3d6b1629	0.05739418
240	0xbde07004	-0.10958865
241	0x3e22fcda	0.15916768
242	0xbed267cc	-0.41094816
243	0xbe5c9bcd	-0.21543808
244	0x3dce52b2	0.10074367
245	0xc04d359e	-3.2063975
246	0x3db41e5d	0.08794854
247	0xbdc4e3ac	-0.096137375
248	0xbcb4a22c	-0.022049986
249	0xbe1950d4	-0.1497224
250	0xbff359b3	-1.9011749
251	0xbf8f7092	-1.1206229
252	0xbee43908	-0.4457476
253	0x3df8a6d8	0.12141198
254	0xbdb941f7	-0.09045785
255	0x3cc7bdf9	0.024382578

linear3.bias f4 [72]
0	0xbf580c3c	-0.8439367
1	0xbf63666d	-0.88828164
2	0xbf695359	-0.91142803
3	0xbf741b3b	-0.9535405
4	0xbf7c8158	-0.9863486
5	0xbf814204	-1.0098271
6	0xbf82174f	-1.0163363
7	0xbf810fc8	-1.0082941
8	0xbf7e0e09	-0.99240166
9	0xbf7b10b6	-0.98072374
10	0xbf799817	-0.97497696
11	0xbf7965f4	-0.97421193
12	0xbf7e7e42	-0.99411404
13	0xbf826050	-1.0185642
14	0xbf859e36	-1.0438907
15	0xbf890b14	-1.0706506
16	0xbf8b05ae	-1.0861108
17	0xbf8ae286	-1.085038
18	0xbf8871ea	-1.0659764
19	0xbf84d6de	-1.0378072
20	0xbf820313	-1.0157188
21	0xbf79fc35	-0.9765046
22	0xbf6a09a2	-0.9142095
23	0xbf599a6e	-0.85001266
24	0xbf4a1bac	-0.78948474
25	0xbf406396	-0.75151956
26	0xbf4130ad	-0.754649
27	0xbf4c7d65	-0.79878837
28	0xbf5402bb	-0.82816666
29	0xbf5712ef	-0.84013265
30	0xbf5579fa	-0.83389246
31	0xbf5283e3	-0.82232493
32	0xbf4eeeb1	-0.80832964
33	0xbf4c038c	-0.7969291
34	0xbf4b4d4f	-0.7941484
35	0xbf4fe675	-0.81211025
36	0xbf5d5074	-0.86450887
37	0xbf6e2b20	-0.93034554
38	0xbf7bd714	-0.9837506
39	0xbf81d95d	-1.0144459
40	0xbf818ab0	-1.0120449
41	0xbf77aaeb	-0.96745175
42	0xbf67868a	-0.90439665
43	0xbf594415	-0.8486951
44	0xbf54cf54	-0.8312886
45	0xbf562155	-0.8364461
46	0xbf5a6e7d	-0.8532484
47	0xbf623170	-0.88356686
48	0xbf6ee838	-0.9332309
49	0xbf759121	-0.95924574
50	0xbf7960a4	-0.97413087
51	0xbf821ad7	-1.0164441
52	0xbf859022	-1.0434611
53	0xbf855a03	-1.0418094
54	0xbf81b5ce	-1.0133607
55	0xbf77fa3f	-0.9686622
56	0xbf6b5b4c	-0.9193618
57	0xbf60b7ba	-0.87780344
58	0xbf5b8a7b	-0.8575818
59	0xbf5c5ff0	-0.8608389
60	0xbf65ac36	-0.897159
61	0xbf73c8d2	-0.952283
62	0xbf7b3e7d	-0.98142225
63	0xbf7fca0e	-0.99917686
64	0xbf7defb3	-0.99193877
65	0xbf716634	-0.94296575
66	0xbf5f3ec8	-0.8720517
67	0xbf4db279	-0.8035045
68	0xbf43738e	-0.763482
69	0xbf3c9502	-0.7366487
70	0xbf3605f1	-0.71102816
71	0xbf2ac625	-0.66708595
