models/production_big_lstm_200_20_01_v2.pth (torch, 19936 bytes, 5 tensors)

lstm.weight_ih_l0 f4 [128, 1]
1.9123837 -0.3712794 -2.1723454 0.60678774 -0.1426587 -0.62861043 -0.7634516 0.31358862
-0.3997095 -0.08449707 0.83803445 1.8623532 -0.054044902 -0.0093755275 -1.4960514 0.5955515
0.24402432 -0.46317595 0.18799274 -0.026990771 0.45741457 -0.48778185 1.2125865 -1.0322113
0.5147251 -0.36487463 -1.4631978 -0.05355091 0.99428153 0.8088251 -0.6183477 0.5779153
-3.3486285 -1.152624 0.91918427 -0.8315514 0.13379452 -1.322219 1.072009 0.44485486
0.33081082 0.31297266 -1.445091 -1.160903 0.4291171 0.3561827 1.0715357 -0.013988078
-1.1355772 0.6428401 0.22982472 0.91069716 -0.070539914 0.6172376 -2.246238 -2.3521793
-0.0012317155 0.5702971 0.34295976 0.19180152 0.13513912 -1.3795737 -0.2912231 0.42571178
-2.0787687 -3.5401647 1.6338266 -4.5908084 1.5752679 -2.0975435 1.6278145 1.4469514
0.5041131 0.34802192 -1.7897792 0.55183333 1.5648198 1.544915 1.5626309 1.2636796
-2.750732 1.4902232 -1.3572524 1.302001 -1.997458 0.06691611 -2.0030205 -0.29992622
1.4753525 1.4843998 1.5763212 -0.0672327 -2.3027627 -4.3998456 -0.61656773 -2.133943
0.90566504 -0.4704941 0.017176684 0.03094989 -0.40181231 -1.4387274 -0.22912937 0.38161474
-0.6501277 -0.28234664 0.8335788 1.5884757 -0.023322437 -0.08546912 -0.5785259 -0.10475314
0.7891238 0.23770215 -0.05975076 -0.46609703 0.7579255 -1.3007793 1.182645 -1.9610208
0.08184868 0.15608129 -0.82763225 -0.092307724 0.84450114 0.929709 -0.14153592 0.3716288
00000000: fdc8 f43f 5518 bebe b507 0bc0 7156 1b3f
00000010: 1f15 12be 9dec 20bf 9071 43bf b08e a03e
00000020: b9a6 ccbe cd0c adbd 6d89 563f 9761 ee3f
00000030: 305e 5dbd d09b 19bc 9d7e bfbf 1076 183f
00000040: 83e1 793e 6625 edbe 2b81 403e c01b ddbc
00000050: 3e32 ea3e 8bbe f9be 0936 9b3f 801f 84bf
00000060: 06c5 033f d9d0 babe 114a bbbf 3358 5bbd
00000070: 3c89 7e3f 290f 4f3f 094c 1ebf 42f2 133f
00000080: ee4f 56c0 2f89 93bf a94f 6b3f 8de0 54bf
00000090: 6e01 093e 793e a9bf 9737 893f 04c4 e33e
000000a0: 0960 a93e f43d a03e bef8 b8bf 7898 94bf
000000b0: 3db5 db3e 945d b63e 1528 893f 402e 65bc
000000c0: 985a 91bf 2b91 243f 2c57 6b3e 7323 693f
000000d0: 3b77 90bd 4903 1e3f 5dc2 0fc0 1b8a 16c0
000000e0: 8471 a1ba fefe 113f 6c98 af3e 9e67 443e
000000f0: e961 0a3e df95 b0bf 321b 95be e5f6 d93e
00000100: 8c0a 05c0 0f92 62c0 3b21 d13f e7e7 92c0
00000110: 61a2 c93f 273e 06c0 3a5c d03f b435 b93f
00000120: 8e0d 013f ee2f b23e 7c17 e5bf f344 0d3f
00000130: 044c c83f c6bf c53f 4a04 c83f 41c0 a13f
00000140: fe0b 30c0 a2bf be3f 72ba adbf f8a7 a63f
00000150: b4ac ffbf 500b 893d 7d31 00c0 ee8f 99be
00000160: 5ad8 bc3f d000 be3f e5c4 c93f 4cb1 89bd
00000170: 7760 13c0 89cb 8cc0 62d7 1dbf 8692 08c0
00000180: aad9 673f 9ae4 f0be 1eb6 8c3c a08a fd3c
00000190: 58ba cdbe 3828 b8bf e4a0 6abe 0263 c33e
000001a0: c56e 26bf bd8f 90be 6c65 553f 2c53 cb3f
000001b0: b20e bfbc 6f0a afbd 461a 14bf d088 d6bd
000001c0: 0404 4a3f 3168 733e 37bd 74bd 45a4 eebe
000001d0: 6807 423f f07f a6bf e960 973f bb02 fbbf
000001e0: 48a0 a73d c6d3 1f3e b5df 53bf d50b bdbd
000001f0: 3a31 583f 6901 6e3f cbee 10be 2146 be3e

lstm.weight_hh_l0 f4 [128, 32]
-0.86567307 0.59337944 0.031178867 0.6732851 -0.6265887 3.7637334 -0.040023282 -0.48312452
1.1660341 -1.9829069 -0.5342389 0.111091346 -0.5323923 -0.31589544 -0.3840218 -0.5218522
-0.30380148 -0.85313773 3.1955562 -0.29858524 0.3787401 1.9155847 -0.6434073 -2.502867
0.58238465 -0.72227544 -0.11362951 0.69863796 -0.33973768 -0.20526245 -1.0417157 0.11766171
3.384884 -0.7980432 -1.3744847 0.79755735 -0.5412862 3.6111023 -0.74691564 0.8688359
-1.3774216 -0.7026874 -0.85995096 -1.4734802 -0.43037248 -0.64445394 -1.0835015 0.9026301
0.8594179 1.0887287 -0.8414122 1.5803844 -0.34708118 -0.788451 1.3651203 -1.972959
1.2502164 0.207725 -0.62649983 -0.378109 1.519572 2.3383818 -2.0129607 0.6893081
-2.4135542 0.7496701 1.579747 -0.87938905 1.4134092 2.5138993 1.6644262 1.085942
-4.210408 -0.24474859 -0.35279524 -2.1280599 1.3478005 1.1697056 1.6038579 1.9934078
0.9714844 0.97188514 0.19562598 0.27533314 -0.00051552115 -0.38472673 -1.7506194 -1.5670205
4.356709 1.6308897 1.4737959 1.2041726 -2.5049744 1.8577349 -0.37520638 -2.1378293
0.07270172 -0.6727021 0.28795218 -1.0306469 -0.20837405 0.08522313 -0.10126856 -0.35654375
-4.5068707 -1.3710384 -0.7433235 -1.6423379 0.0641461 -0.2876161 -0.09940202 0.9131362
-0.044519663 -1.1130787 2.1190326 -1.6581028 -0.62447 -0.7434623 -0.43135172 -3.526774
-0.47200164 -1.0772935 0.008266358 -0.5271978 0.71004444 1.2557755 -3.2694852 -0.16567339
-2.1147723 0.90414923 0.5333759 -0.30472317 -0.81588566 0.49062023 0.16550356 -0.3719838
-1.3887882 -0.40006807 -0.7865755 -0.9578233 -0.036257636 -0.17321128 0.1167265 -0.39222097
1.1743675 -0.27908522 0.95911276 -0.62297046 -0.8301967 -0.049063947 -2.129258 -0.61199164
0.76218134 0.242381 -0.34334794 0.18892537 -1.0877544 0.65915096 -0.36124358 -1.2781513
-0.07752369 -1.7534448 -0.43243608 -0.038874723 -1.1041571 -0.25430906 -0.45134637 -0.9719069
-0.3632733 -1.6274905 -0.71665615 -1.4790561 -0.69256973 -1.7815349 -1.0619802 -1.731704
-0.84219044 -2.1460633 -1.0324178 1.4145728 -3.2049181 0.51543677 -0.4958203 -0.39209476
-0.3764109 -0.8949052 -1.1357077 -2.1502745 -0.34020892 -0.82129174 -1.7662622 -0.08928205
-1.7131498 -0.0914812 0.69840556 0.23836823 0.21027486 -0.09613092 -0.12242326 0.13686605
-0.5417439 -0.7890988 -1.4973079 -0.7934761 0.2923597 0.40017787 0.49375555 -0.14305286
0.05901922 -0.14721899 -0.060093302 -0.114053845 -0.65095633 1.1635575 -0.67246956 -1.0908033
1.3982074 0.80934644 0.4317434 -0.30000222 -1.9067942 -0.051133916 -0.23183346 -1.2481372
0.10045731 0.3086978 -0.54497796 -1.0956813 -0.711081 -0.60586447 -0.63919455 -1.1724592
-1.5614847 -0.19925646 0.2518243 -0.31679034 -0.18917435 -0.36272025 -0.93635786 -0.3950995
1.7319758 -0.5421098 -0.38608593 0.19068377 -0.63420427 -0.10444843 0.4482862 0.0266701
0.71750677 -0.39317244 -0.80210996 0.22499558 -0.3039336 0.4750819 0.20655909 -0.19606274
00000000: c09c 5dbf b7e7 173f d36a ff3c 6a5c 2c3f
00000010: 1e68 20bf 02e1 7040 74ef 23bd 195c f7be
00000020: 9b40 953f e5cf fdbf e1c3 08bf dc83 e33d
00000030: dd4a 08bf 0cbd a1be 819e c4be 1b98 05bf
00000040: de8b 9bbe 3c67 5abf fe83 4c40 2ae0 98be
00000050: 39ea c13e e131 f53f 57b6 24bf f92e 20c0
00000060: 2917 153f 0be7 38bf 97b6 e8bd f0d9 323f
00000070: 19f2 adbe 5230 52be f156 85bf 9ff8 f03d
00000080: f1a1 5840 8f4c 4cbf 1def afbf b82c 4c3f
00000090: bb91 0abf 4d1c 6740 dd35 3fbf 086c 5e3f
000000a0: 5a4f b0bf 52e3 33bf bf25 5cbf 009b bcbf
000000b0: c859 dcbe effa 24bf 2db0 8abf c412 673f
000000c0: d002 5c3f 765b 8b3f ca66 57bf 094a ca3f
000000d0: a0b4 b1be edd7 49bf 43bc ae3f ec89 fcbf
000000e0: 1707 a03f ddb5 543e 4b62 20bf 8197 c1be
000000f0: 5681 c23f 0ca8 1540 59d4 00c0 7f76 303f
00000100: ac77 1ac0 61ea 3f3f 2635 ca3f a41f 61bf
00000110: 98ea b43f bae3 2040 eb0b d53f 2600 8b3f
00000120: aabb 86c0 609f 7abe 94a1 b4be 2232 08c0
00000130: ba84 ac3f eab8 953f 374b cd3f fd27 ff3f
00000140: 34b3 783f 77cd 783f 2d52 483e 77f8 8c3e
00000150: 0a24 07ba e7fa c4be 4c14 e0bf 2194 c8bf
00000160: 296a 8b40 fec0 d03f 58a5 bc3f 5422 9a3f
00000170: 8051 20c0 42ca ed3f 0d1b c0be 32d2 08c0
00000180: a4e4 943d 3436 2cbf 786e 933e 3dec 83bf
00000190: 0260 55be 7789 ae3d e465 cfbd e78c b6be
000001a0: 4938 90c0 307e afbf 734a 3ebf 2138 d2bf
000001b0: 085f 833d 6b42 93be 4993 cbbd 4bc3 693f
000001c0: 405a 36bd 5d79 8ebf 3b9e 0740 b63c d4bf
000001d0: 44dd 1fbf 8c53 3ebf 22da dcbe aab6 61c0
000001e0: 33aa f1be c1e4 89bf 9e6f 073c 6ff6 06bf
000001f0: 79c5 353f 40bd a03f 3f3f 51c0 49a6 29be
00000200: 6e58 07c0 5376 673f 538b 083f ad04 9cbe
00000210: e2dd 50bf 9332 fb3e c479 293e a974 bebe
00000220: d0c3 b1bf b9d5 ccbe 035d 49bf e833 75bf
00000230: e382 14bd 4c5e 31be 4e0e ef3d 30d1 c8be
00000240: ad51 963f 42e4 8ebe 6a88 753f fe7a 1fbf
00000250: c587 54bf 47f7 48bd c345 08c0 7cab 1cbf
00000260: 511e 433f ba32 783e 4dcb afbe a775 413e
00000270: 893b 8bbf 1ebe 283f ebf4 b8be 769a a3bf
00000280: bec4 9ebd e170 e0bf 4368 ddbe 1a3b 1fbd
00000290: 0555 8dbf cc34 82be df16 e7be e4ce 78bf
000002a0: f5fe b9be 9c51 d0bf c776 37bf b651 bdbf
000002b0: 404c 31bf 5609 e4bf f8ee 87bf 7aa8 ddbf
000002c0: cb99 57bf 1a59 09c0 4426 84bf b910 b53f
000002d0: 611d 4dc0 aaf3 033f 29dc fdbe a5c0 c8be
000002e0: eeb8 c0be 8218 65bf df5e 91bf 199e 09c0
000002f0: dd2f aebe 2d40 52bf e114 e2bf 82d9 b6bd
00000300: 7e48 dbbf 7f5a bbbd b5ca 323f cd16 743e
00000310: 4b52 573e 4ae0 c4bd 0cb9 fabd 9d26 0c3e
00000320: baaf 0abf 6102 4abf c9a7 bfbf 4021 4bbf
00000330: 2cb0 953e 1de4 cc3e 87cd fc3e 737c 12be
00000340: 23be 713d 93c0 16be 6524 76bd 1095 e9bd
00000350: 13a5 26bf 74ef 943f f726 2cbf 719f 8bbf
00000360: 76f8 b23f 5431 4f3f 790d dd3e e499 99be
00000370: d511 f4bf cc71 51bd c065 6dbe f6c2 9fbf
00000380: 90bc cd3d a30d 9e3e ad83 0bbf 493f 8cbf
00000390: 6809 36bf ef19 1bbf 41a2 23bf 2513 96bf
000003a0: bbde c7bf e309 4cbe 1def 803e 5832 a2be
000003b0: ecb6 41be 78b6 b9be 26b5 6fbf 7b4a cabe
000003c0: 62b1 dd3f b5c7 0abf 0ead c5be 9b42 433e
000003d0: 365b 22bf 0fe9 d5bd c585 e53e 417b da3c
000003e0: 86ae 373f e64d c9be 1457 4dbf 3e65 663e
000003f0: 2f9d 9bbe ef3d f33e 3a84 533e acc4 48be

lstm.bias_ih_l0 f4 [128]
-0.5314396 -0.5479108 0.12864867 -1.0557529 -0.40965158 0.021835016 -0.041866936 -0.33792198
0.011845331 -0.33392996 -0.17112327 -0.64468294 -0.5020554 -0.10938902 0.16895586 -0.3527159
-0.6405716 0.13720462 -0.35259777 -0.057088524 -0.6199449 -0.7522146 -0.50555265 -0.47245613
-0.47159907 -0.27911854 0.1208258 -0.12710813 -0.43975285 -0.84844977 -0.8582691 -0.29508793
-0.3145639 -0.632418 -0.6548265 -0.567992 -1.0371037 0.44270647 -0.87545365 -0.72111434
0.7093289 -0.94843966 -0.90887094 -1.1283911 -0.55528873 -0.9193931 -1.1705587 -0.2748601
-0.4386608 -0.53563356 -0.052418172 0.65730727 0.11233837 0.2157598 -1.0476556 0.26419777
0.2006211 -0.9070369 -0.8994895 0.29398632 -0.73230726 -0.7016454 0.2894007 0.031129463
0.22680476 0.4219121 -0.2611849 0.67102635 -0.32538006 0.118110515 -0.21343148 -0.20860599
0.06430151 0.09093028 0.4157676 0.13822162 -0.0936326 -0.20942 -0.04216803 -0.11684238
0.3909724 -0.08824292 0.16410705 -0.23346734 0.35820347 0.27001557 0.33603933 0.054000083
-0.3500688 -0.12447452 -0.12102443 -0.15691485 0.17122734 0.23548445 -0.110008605 0.2887669
-0.0003381175 -0.24637872 0.47950095 -0.8113769 -0.15562919 -0.5391769 -0.20626317 -0.588823
-0.22662576 -0.5858223 -0.36451045 -0.6748137 -0.23513404 -0.21557097 -0.17291653 -0.24244289
0.19722751 -0.22056653 -0.3382075 -0.20075136 -0.22782168 -0.41445655 -0.31290904 -0.07269442
0.3681289 -0.3347468 0.10870264 -0.3320743 -0.010330879 -0.07782888 0.24645504 -0.4649231
00000000: 6d0c 08bf e243 0cbf 7abc 033e e922 87bf
00000010: dabd d1be 59df b23c aa7c 2bbd 1c04 adbe
00000020: eb12 423c def8 aabe f03a 2fbe f109 25bf
00000030: b486 00bf 5a07 e0bd c402 2d3e 2e97 b4be
00000040: 80fc 23bf 5e7f 0c3e b287 b4be a8d5 69bd
00000050: b5b4 1ebf 2391 40bf e66b 01bf c5e5 f1be
00000060: 6f75 f1be a0e8 8ebe 8473 f73d a228 02be
00000070: 4927 e1be 0134 59bf 86b7 5bbf c415 97be
00000080: 850e a1be 25e6 21bf b6a2 27bf ec67 11bf
00000090: d0bf 84bf 6caa e23e bb1d 60bf f39a 38bf
000000a0: 9496 353f f1cc 72bf c4ab 68bf 1f6f 90bf
000000b0: 6727 0ebf 595d 6bbf ded4 95bf 77ba 8cbe
000000c0: 2698 e0be 481f 09bf 70b4 56bd 4a45 283f
000000d0: a911 e63d 23f0 5c3e 9419 86bf ee44 873e
000000e0: 9e6f 4d3e 9233 68bf f244 66bf 6085 963e
000000f0: 7d78 3bbf 089f 33bf 542c 943e 3703 ff3c
00000100: 823f 683e dd04 d83e 07ba 85be 62c8 2b3f
00000110: 3798 a6be ede3 f13d c88d 5abe cf9c 55be
00000120: 83b0 833d a839 ba3d 7edf d43e f889 0d3e
00000130: 73c2 bfbd 3272 56be 62b8 2cbd 0f4b efbd
00000140: 892d c83e b4b8 b4bd ae0b 283e 1012 6fbe
00000150: 7266 b73e 7b3f 8a3e 590d ac3e 312f 5d3d
00000160: 383c b3be 7fec febd a8db f7bd 49ae 20be
00000170: 3856 2f3e d622 713e 314c e1bd 41d9 933e
00000180: 5d45 b1b9 b44a 7cbe 2681 f53e 66b6 4fbf
00000190: 425d 1fbe 7f07 0abf a736 53be 1bbd 16bf
000001a0: 9510 68be 73f8 15bf 1da1 babe 97c0 2cbf
000001b0: fac6 70be a3be 5cbe 0811 31be f342 78be
000001c0: 02f6 493e 31dc 61be 8929 adbe c491 4dbe
000001d0: 164a 69be a633 d4be 9d35 a0be d0e0 94bd
000001e0: 647b bc3e ef63 abbe 7d9f de3d a505 aabe
000001f0: d942 29bc bf64 9fbd b65e 7c3e 670a eebe

lstm.bias_hh_l0 f4 [128]
-0.6243035 -0.76766866 0.37952238 -0.89831126 -0.14923297 0.037764948 -0.18987536 -0.39543793
-0.16507217 -0.34985277 0.15898077 -0.7123154 -0.45181644 -0.28193986 0.18404588 -0.23199256
-0.37130874 0.036427833 -0.33627275 -0.021725176 -0.65642154 -0.9271685 -0.45455036 -0.63462305
-0.22956736 -0.30194542 -0.15379064 -0.20313804 -0.12077763 -0.82673603 -1.0562834 -0.30718598
-0.51008195 -0.9129878 -0.8977492 -0.7770637 -0.81435746 0.27131644 -1.0300958 -0.63465804
0.37749043 -0.9175739 -0.93688095 -1.1462476 -0.56321037 -0.82840836 -1.08819 -0.2371516
-0.6866267 -0.5753203 -0.12226253 0.556878 -0.085652314 0.15640901 -1.0833739 0.13817404
0.32477245 -0.70183784 -0.8166889 0.08042584 -0.6152052 -0.6965196 0.55346227 0.2474872
0.33707035 0.47589073 -0.10596126 0.6045268 -0.036645286 0.044345085 -0.14435115 -0.11681428
0.02519254 -0.19110733 0.15543053 -0.049489867 -0.22621778 -0.16405913 -0.31320804 -0.23502576
0.25981173 -0.25112554 0.42147335 -0.27038804 0.30762467 0.26490274 0.39921224 -0.107654676
-0.19324347 -0.118739985 -0.22888634 -0.08000401 0.40759218 0.5485131 -0.30851838 0.40655705
-0.084686294 -0.44713414 0.41133815 -0.90616465 -0.12603073 -0.650932 -0.28007287 -0.40160006
-0.28643247 -0.571112 -0.44353306 -0.7616443 -0.01617433 -0.077686235 0.13395491 -0.34974587
0.3077633 -0.1821738 -0.37486908 -0.17938031 -0.25391757 -0.6545602 -0.34971255 0.113695085
0.35694546 -0.030680332 0.015942357 -0.11401332 -0.28378937 -0.31262484 0.071990944 -0.750742
00000000: 5bd2 1fbf ef85 44bf c250 c23e baf7 65bf
00000010: 87d0 18be 6baf 1a3d b06e 42be d776 cabe
00000020: ae08 29be e71f b3be dbcb 223e 4d5a 36bf
00000030: 7c54 e7be 6c5a 90be 8676 3c3e 758f 6dbe
00000040: 2e1c bebe 5a35 153d f12b acbe fff8 b1bc
00000050: 3e0b 28bf ea5a 6dbf d3ba e8be a876 22bf
00000060: b513 6bbe 9798 9abe 4b7b 1dbe 6b03 50be
00000070: 435a f7bd f9a4 53bf 4b34 87bf 7b47 9dbe
00000080: bb94 02bf 92b9 69bf e4d2 65bf a6ed 46bf
00000090: bb79 50bf fde9 8a3e 2eda 83bf f378 22bf
000000a0: 6d46 c13e 20e6 6abf 6ed7 6fbf 3eb8 92bf
000000b0: 8e2e 10bf 9212 54bf cf49 8bbf ded7 72be
000000c0: c4c6 2fbf 3148 13bf c764 fabd 8e8f 0e3f
000000d0: 7b6a afbd af29 203e ffab 8abf 7f7d 0d3e
000000e0: 9348 a63e a5ab 33bf 8612 51bf 4eb6 a43d
000000f0: 177e 1dbf 1c4f 32bf b4af 0d3f 496d 7d3e
00000100: 7c94 ac3e f3a7 f33e 3802 d9bd 45c2 1a3f
00000110: 5e19 16bd 31a3 353d cad0 13be 533c efbd
00000120: 9660 ce3c a4b1 43be 2e29 1f3e e3b5 4abd
00000130: a2a5 67be 1eff 27be ce5c a0be 98aa 70be
00000140: 0b06 853e 8793 80be 5bcb d73e 4d70 8abe
00000150: fb80 9d3e 55a1 873e 8c65 cc3e 0e7a dcbd
00000160: 9ee1 45be f32d f3bd 2e61 6abe 24d9 a3bd
00000170: ecaf d03e 5b6b 0c3f 1ff6 9dbe 3f28 d03e
00000180: 0270 adbd c4ee e4be ea9a d23e 68fa 67bf
00000190: 330e 01be 7ba3 26bf b665 8fbe 869e cdbe
000001a0: 47a7 92be 6534 12bf c416 e3be 1ffb 42bf
000001b0: 0780 84bc f619 9fbd 7a2b 093e e411 b3be
000001c0: 2793 9d3e c58b 3abe d7ee bfbe 79af 37be
000001d0: 7c01 82be 4291 27bf 860d b3be f8d8 e83d
000001e0: 8ec1 b63e 5255 fbbc 8c99 823c d17f e9bd
000001f0: d74c 91be 5d10 a0be fd6f 933d a130 40bf

fc.weight f4 [1, 32]
-0.3760555 -0.4653647 0.389928 -0.6880912 0.63143575 -0.18075716 0.5420372 0.5453781
-0.21785478 0.4973663 -0.38084248 -0.44241244 0.52479553 0.4890351 0.47502875 0.4752046
-0.3678183 0.60426444 -0.44734374 0.18151844 -0.4484039 -0.46236143 -0.26804638 0.42246652
0.3202713 0.574163 0.5950984 0.28693834 -0.32472864 -0.46813977 0.22869563 -0.3815345
00000000: 598a c0be 4844 eebe a5a4 c73e bf26 30bf
00000010: c6a5 213f 6818 39be f3c2 0a3f e69d 0b3f
00000020: 5315 5fbe cca6 fe3e c9fd c2be e283 e2be
00000030: 0059 063f cf62 fa3e f836 f33e 044e f33e
00000040: ae52 bcbe 13b1 1a3f 3d0a e5be f8df 393e
00000050: 3295 e5be a3ba ecbe 603d 89be 884d d83e
00000060: 9afa a33e 59fc 123f 5e58 183f 95e9 923e
00000070: d542 a6be 04b0 efbe 302f 6a3e 7d58 c3be
